金融异常检测/results/model.pt (torch, 14068 bytes, 6 tensors)

convs.0.lin_l.weight f4 [64, 20]
-0.083922796 0.09295252 -0.1323413 0.1835168 -0.1246452 0.1311326 0.19611551 0.094502434
0.24822381 0.08292644 -0.13197015 0.24758996 0.22690827 0.17569067 0.009152136 0.060289137
0.10364361 0.08858337 -0.19287255 -0.13722833 0.0901357 -0.0073528797 0.0498725 -0.19734718
-0.11578865 0.082585506 -0.09704449 -0.2455322 -0.21420111 -0.10356529 -0.035377275 -0.045983236
-0.19229153 -0.083134204 -0.09483847 0.07364471 -0.076566085 0.17943048 -0.07432232 -0.1706807
-0.16846836 0.23061697 -0.02014361 -0.14520265 -0.09942865 0.12665907 -0.123785436 -0.060551636
0.20280012 0.07034831 -0.098875634 0.16507494 0.03324885 0.13998492 0.2158208 -0.085683055
0.23737584 -0.019979192 -0.09566337 0.028206062 -0.12512058 0.21385552 0.1950516 0.08275405
0.07762198 -0.0011656221 -0.040062968 0.02352743 -0.03706413 0.09673129 0.06976179 0.14951268
-0.100276 0.19797361 0.18056054 0.10593233 0.065662265 -0.10706964 -0.14916235 -0.13188255
0.00543564 0.03364352 0.1462734 0.0015424519 -0.15322384 -0.2392525 0.14879301 -0.16752316
-0.2192699 0.10153282 -0.06515275 0.054884963 -0.18417573 -0.015416303 0.13276969 0.19133024
-0.2398988 0.08019178 -0.10908402 -0.18543632 0.21834742 0.12218004 -0.18120718 0.007327521
-0.023535905 0.19891284 0.06940659 0.004566396 -0.05797907 0.23235454 -0.16561498 0.056026448
0.024326144 0.18609363 -0.0829751 0.06034485 0.23033519 -0.097703665 -0.042968135 0.12750098
0.018688688 -0.16343592 0.17848109 -0.09991969 -0.14921197 -0.1834791 -0.2075343 -0.17660446
-0.026100846 -0.25006512 0.14548548 -0.23069091 0.07224575 -0.17713615 0.13386224 -0.21633555
-0.05671874 -0.03363557 0.21700583 0.1969064 -0.11207561 0.15057704 -0.1487826 0.05914251
0.04809132 0.099588215 -0.04121637 0.105745524 0.11305934 0.23899963 -0.10545336 -0.1698295
0.007721951 -0.009021084 -0.11642448 0.17414668 0.023696603 -0.13033184 -0.17658643 -0.17928119
-0.119033806 -0.026240053 0.083859295 0.15532923 -0.047968186 -0.16105539 -0.09906069 0.09867597
-0.011495463 0.11152185 0.1887421 0.19118969 -0.10101217 -0.03814163 0.18553492 0.092616186
-0.17923693 -0.12457538 -0.106507234 0.14938755 -0.13723788 0.24136119 0.25720948 0.073573574
0.24022573 0.15405011 -0.10734949 0.18633655 -0.118469425 0.10689553 0.15930012 -0.10825519
0.04564469 0.04655189 -0.15304044 0.032498013 -0.21884166 0.19005774 -0.06247934 0.20364378
0.2014484 0.16781038 -0.05860217 -0.16346197 0.14908198 -0.09774625 -0.15122536 0.022245957
-0.1593674 -0.009337441 0.07972457 0.17725036 -0.0972754 0.009833661 -0.0047450573 -0.17870376
-0.08636839 0.09821473 0.17232057 0.14814383 -0.24398412 -0.17994037 0.022553094 0.18121493
-0.25087073 -0.093840435 0.06282268 -0.22762476 -0.14103527 -0.1148126 -0.0739025 -0.02187325
-0.14148514 0.04146989 -0.07798932 -0.15346746 0.1690642 -0.08786458 0.105795376 -0.10849572
0.0357656 -0.07679205 0.25609586 -0.07616089 0.01579635 0.026224935 -0.08058262 -0.0072720074
-0.16451274 -0.14925058 -0.17365701 0.19209573 0.114888504 0.24424675 0.06505357 -0.026952693
00000000: b7df abbd e45d be3d 7a84 07be d4eb 3b3e
00000010: fc45 ffbd a047 063e 81d2 483e 7e8a c13d
00000020: 622e 7e3e 56d5 a93d 2f23 07be 3988 7d3e
00000030: a45a 683e 41e8 333e d7f2 153c bef1 763d
00000040: 1a43 d43d 336b b53d 6280 45be 9585 0cbe
00000050: 1199 b83d 6df0 f0bb 1b47 4c3d 6115 4abe
00000060: 9a22 edbd 9722 a93d 43bf c6bd cb6c 7bbe
00000070: 8957 5bbe 0a1a d4bd c3e7 10bd eb58 3cbd
00000080: 12e8 44be 4442 aabd ac3a c2bd 0ad3 963d
00000090: aece 9cbd a0bc 373e 4d36 98bd ecc6 2ebe
000000a0: f882 2cbe db26 6c3e 3604 a5bc 01b0 14be
000000b0: 40a1 cbbd eab2 013e 3883 fdbd fe04 78bd
000000c0: d6aa 4f3e c612 903d 4f7f cabd 6809 293e
000000d0: f22f 083d 3558 0f3e 2100 5d3e 997a afbd
000000e0: a712 733e 67ab a3bc 28eb c3bd 6610 e73c
000000f0: 9c1f 00be f1fc 5a3e 9bbb 473e f57a a93d
00000100: 46f8 9e3d cac7 98ba 1119 24bd 99bc c03c
00000110: 8fd0 17bd 0e1b c63d 45df 8e3d da19 193e
00000120: 815d cdbd 98b9 4a3e dde4 383e 0df3 d83d
00000130: f079 863d 5447 dbbd 04be 18be 380c 07be
00000140: 741d b23b cacd 093d b2c8 153e 192c ca3a
00000150: b6e6 1cbe 9bfe 74be 325d 183e 318b 2bbe
00000160: 4a88 60be 70f0 cf3d ce6e 85bd 0ecf 603d
00000170: 9098 3cbe a994 7cbc c7f4 073e 13ec 433e
00000180: 08a8 75be 973b a43d 7167 dfbd 05e3 3dbe
00000190: 7796 5f3e 8739 fa3d 608e 39be b41b f03b
000001a0: 5fce c0bc cfaf 4b3e 0b25 8e3d b5a1 953b
000001b0: 767b 6dbd 59ee 6d3e f996 29be fd7b 653d
000001c0: 9f47 c73c 548f 3e3e d9ee a9bd 292c 773d
000001d0: fddc 6b3e dc18 c8bd 5bff 2fbd 9e8f 023e
000001e0: 0519 993c bf5b 27be bfc3 363e b2a2 ccbd
000001f0: 06cb 18be f2e1 3bbe df83 54be cdd7 34be
00000200: 71d1 d5bc 8908 80be 25fa 143e 3d3a 6cbe
00000210: 94f5 933d 2e63 35be 2f13 093e 1187 5dbe
00000220: e951 68bd 74c5 09bd c736 5e3e d5a1 493e
00000230: e687 e5bd de30 1a3e 775a 18be 6b3f 723d
00000240: 67fb 443d e8f4 cb3d 7fd2 28bd 1c91 d83d
00000250: a88b e73d 52bc 743e eef7 d7bd c9e7 2dbe
00000260: 6c08 fd3b 2bcd 13bc f56f eebd 8253 323e
00000270: 611f c23c b675 05be 13d3 34be 7d95 37be
00000280: ffc7 f3bd 61f5 d6bc 6cbe ab3d a00e 1f3e
00000290: 4a7a 44bd b4eb 24be 55e0 cabd a116 ca3d
000002a0: 7757 3cbc 9165 e43d 9c45 413e 3bc7 433e
000002b0: 78df cebd 663a 1cbd defc 3d3e 8ead bd3d
000002c0: e389 37be 6021 ffbd 7720 dabd 0df9 183e
000002d0: 1688 0cbe 6327 773e f6b0 833e bead 963d
000002e0: bcfd 753e 50bf 1d3e 0dda dbbd 02cf 3e3e
000002f0: 19a0 f2bd 0bec da3d 921f 233e e6b4 ddbd
00000300: edf5 3a3d 32ad 3e3d a2b6 1cbe a31c 053d
00000310: 0718 60be 7f9e 423e 56ea 7fbd ff87 503e
00000320: 7d48 4e3e 7cd6 2b3e d408 70bd 9362 27be
00000330: f2a8 183e 302f c8bd d2da 1abe 273d b63c
00000340: 3531 23be 11fc 18bc a346 a33d 1e81 353e
00000350: 5338 c7bd 5d1d 213c 6d7c 9bbb 1efe 36be
00000360: e9e1 b0bd ce24 c93d ce74 303e 04b3 173e
00000370: f9d6 79be 4a42 38be 44c1 b83c 6890 393e
00000380: 2172 80be 6a2f c0bd 2da9 803d 7716 69be
00000390: 8d6b 10be de22 ebbd 325a 97bd 882f b3bc
000003a0: 7be1 10be 55dc 293d ddb8 9fbd 9326 1dbe
000003b0: 2a1f 2d3e 58f2 b3bd 3fab d83d 0133 debd
000003c0: f37e 123d 2645 9dbd ff1e 833e 3efa 9bbd
000003d0: 5967 813c add5 d63c 8008 a5bd 054a eebb
000003e0: 0776 28be 25d5 18be 25d3 31be beb4 443e
000003f0: aa4a eb3d d21b 7a3e ce3a 853d e5cb dcbc

convs.0.lin_l.bias f4 [64]
0.11102924 0.03468124 0.18821864 -0.116016 -0.012596516 0.20532814 0.07831199 0.17985927
0.15609835 -0.13954881 -0.21501179 0.057013433 0.19954337 0.14947253 -0.20352128 0.08357026
0.02947791 0.18207677 -0.19801192 -0.027527854 0.01611718 0.2157441 -0.00015345078 -0.05083126
0.22119994 -0.08360165 -0.11441334 -0.18970355 0.06601206 0.173137 -0.12596448 0.16024585
-0.107272625 -0.1844937 0.09262689 -0.071805365 0.18357903 -0.16019747 -0.04206798 -0.08663053
0.048854552 -0.063419275 0.113894984 0.23089327 0.093582064 -0.029370075 -0.22577618 -0.080398366
-0.21673593 0.012933407 -0.16033153 -0.107410826 0.0063187657 0.2543152 -0.0065984023 -0.10286887
0.25926453 -0.03241028 0.06035018 -6.0293474e-05 0.16179898 -0.0130638275 -0.16602196 -0.00046629502
00000000: 4c63 e33d ea0d 0e3d 63bc 403e cc99 edbd
00000010: 9e61 4ebc 8a41 523e 0962 a03d 072d 383e
00000020: 3fd8 1f3e e2e5 0ebe 0d2c 5cbe eb86 693d
00000030: 1955 4c3e 540f 193e e267 50be e226 ab3d
00000040: a87b f13c 5572 3a3e a3c3 4abe 1882 e1bc
00000050: 2d08 843c 05ec 5c3e a1e7 20b9 7034 50bd
00000060: 3d82 623e 5837 abbd 8b51 eabd a641 42be
00000070: 5531 873d d34a 313e d5fc 00be 7d17 243e
00000080: c0b1 dbbd ebeb 3cbe 2bb3 bd3d b10e 93bd
00000090: 24fc 3b3e ce0a 24be 794f 2cbd 596b b1bd
000000a0: b61b 483d f7e1 81bd c641 e93d 496f 6c3e
000000b0: f4a7 bf3d 8399 f0bc df31 67be e6a7 a4bd
000000c0: 06f0 5dbe a4e6 533c f32d 24be 35fa dbbd
000000d0: a60d cf3b 9a35 823e 6937 d8bb eaac d2bd
000000e0: 52be 843e a4c0 04bd c031 773d a0e3 7cb8
000000f0: a2ae 253e aa09 56bc a901 2abe 0f79 f4b9

convs.0.lin_r.weight f4 [64, 20]
-0.045377545 0.06209323 0.09473683 0.10231928 0.19211145 0.029178083 0.17877398 0.21109506
-0.18063395 0.12029398 0.24186197 0.1714283 0.21567772 -0.19010672 0.19731255 0.22202055
-0.065876 0.109265745 0.123765886 -0.22196591 0.14393348 -0.20768796 -0.15360416 -0.25081074
-0.069234714 0.16268818 -0.17725526 -0.13165535 0.16704799 -0.14523603 0.010396839 -0.023388308
-0.25282535 -0.05335123 -0.083555624 -0.21277341 -0.061917607 -0.23883665 -0.07983282 0.013981024
0.14875552 -0.004244338 0.16755038 0.13210732 0.03219456 -0.12256096 -0.097389385 -0.2513868
0.087150164 -0.11567706 -0.025345093 -0.24461576 -0.22877474 -0.048114635 -0.17862663 -0.17193784
-0.24641365 0.1570252 -0.17356236 0.1744803 0.02345638 0.1455196 -0.15658714 0.23199867
-0.14298926 0.2360357 0.046399195 0.21170878 0.006000233 0.08520635 0.11632792 -0.11343723
0.045288656 -0.054859266 -0.09920896 0.2527352 0.068311945 0.07437515 -0.043795995 0.09169935
-0.14187583 -0.06208573 -0.17181374 -0.11159778 -0.081070736 -0.0494004 -0.18442515 -0.17214447
0.11086878 0.24576133 -0.037101023 0.10743536 0.08144182 -0.11931023 0.058191452 -0.03855006
0.24350242 0.021346325 0.049020413 0.030316478 0.20357035 0.2013554 -0.069310896 0.23634931
-0.1721408 -0.014687362 0.24244688 0.12520392 0.24808191 0.039445467 0.12453089 0.01869155
-0.1531055 -0.15651762 0.18506211 -0.03437668 0.09588074 0.2346997 -0.23311013 -0.15968916
-0.101731636 0.08725582 0.10442045 -0.03411965 0.11111054 0.10954468 0.04858872 -0.06790085
0.01632242 0.0572859 0.24801475 0.021366477 0.11832116 0.07515747 -0.08344522 0.2050805
-0.17651811 -0.1777813 -0.17302752 -0.10825724 0.2413013 -0.07706223 -0.25835365 -0.12655815
0.24541995 0.22760274 0.053414922 0.20151606 -0.13895099 -0.01718179 -0.16980532 0.24173452
-0.123293325 0.22218499 -0.10526519 -0.0039416733 -0.047888488 0.22148512 -0.08445113 0.057781298
-0.0025883783 0.16517149 0.13363203 0.19735706 -0.13845636 -0.05843587 -0.21210882 -0.18435596
0.10663578 -0.062262043 0.0949288 -0.1114844 0.025857849 -0.20824134 0.1513222 -0.092837125
0.003303433 -0.12786403 -0.06463023 -0.14497796 -0.25623843 -0.027989361 0.23041058 -0.101257086
-0.19482124 0.013730243 -0.0374411 -0.027361834 -0.03485948 -0.07737889 0.094231516 -0.055244423
0.14052385 -0.11411705 -0.073988184 0.055823565 -0.20354678 -0.2035405 -0.14770286 -0.06580768
-0.18980277 0.09037815 0.11371692 -0.036209427 -0.19202635 0.10145715 -0.12767842 0.07267897
0.1347945 0.09690321 0.18672538 0.0561827 -0.114653654 -0.021129895 0.07432312 -0.17353438
0.06845405 0.044958793 0.10465037 -0.12112545 0.15911907 -0.063837446 0.09414051 0.1435056
-0.0019950091 0.1301386 0.1342365 0.22855148 -0.013682184 -0.16545473 0.1873657 0.04491079
-0.11541463 0.25361502 0.21526253 0.031706836 -0.1545014 -0.21347417 -0.1871547 0.015304935
-0.1500731 0.1813587 0.053132907 0.17037588 -0.09550722 0.04520291 -0.015077103 -0.014263024
0.045287408 0.20913579 0.105551556 0.1294875 0.16657624 0.004515172 -0.11143336 0.023066906
00000000: cedd 39bd 7955 7e3d 6205 c23d c58c d13d
00000010: ddb8 443e e006 ef3c 8710 373e 4e29 583e
00000020: 1bf8 38be b15c f63d aaaa 773e e68a 2f3e
00000030: 9fda 5c3e 56ab 42be 4d0c 4a3e 5b59 633e
00000040: ffe9 86bd b8c6 df3d f878 fd3d 084b 63be
00000050: 4c63 133e 27ac 54be 694a 1dbe 446a 80be
00000060: eeca 8dbd bb97 263e 6782 35be a9d0 06be
00000070: a10e 2b3e c1b8 14be 8157 2a3c d698 bfbc
00000080: 5372 81be d286 5abd 361f abbd 46e1 59be
00000090: 519d 7dbd 9891 74be 647f a3bd aa10 653c
000000a0: 5e53 183e 1614 8bbb 5492 2b3e 2447 073e
000000b0: 71de 033d 3e01 fbbd 1674 c7bd c5b5 80be
000000c0: c97b b23d 18e8 ecbd 83a0 cfbc 8e7c 7abe
000000d0: ed43 6abe da13 45bd e6e9 36be 7910 30be
000000e0: dc53 7cbe 37cb 203e 55ba 31be f7aa 323e
000000f0: 9827 c03c 1703 153e 6158 20be 0f91 6d3e
00000100: c76b 12be 58b3 713e 150d 3e3d 30ca 583e
00000110: 9a9d c43b ab80 ae3d 553d ee3d c751 e8bd
00000120: 9980 393d 1cb4 60bd 112e cbbd 8266 813e
00000130: 22e7 8b3d 0052 983d 6e63 33bd decc bb3d
00000140: e647 11be 9b4d 7ebd f1ef 2fbe 608d e4bd
00000150: 6a08 a6bd 1358 4abd f2d9 3cbe a446 30be
00000160: 2c0f e33d dca8 7b3e 3ef7 17bd 1207 dc3d
00000170: f8ca a63d ec58 f4bd 295a 6e3d abe6 1dbd
00000180: b358 793e 7dde ae3c a1c9 483d 435a f83c
00000190: bf74 503e 1c30 4e3e dff2 8dbd 8e05 723e
000001a0: ae45 30be 43a3 70bc ff43 783e 7535 003e
000001b0: 2f09 7e3e 9291 213d 0d0a ff3d 051f 993c
000001c0: b0c7 1cbe 2846 20be ec80 3d3e 90ce 0cbd
000001d0: 1f5d c43d 1e55 703e 6cb4 6ebe 8e85 23be
000001e0: ad58 d0bd 2eb3 b23d 64da d53d 0cc1 0bbd
000001f0: ec8d e33d f658 e03d f704 473d 9a0f 8bbd
00000200: 99b6 853c 9fa4 6a3d 94f7 7d3e c008 af3c
00000210: 5d52 f23d 29ec 993d 54e5 aabd 9f00 523e
00000220: 2ac1 34be 4d0c 36be 202e 31be f9b5 ddbd
00000230: b017 773e cdd2 9dbd ee46 84be 7698 01be
00000240: 5e4f 7b3e b110 693e 9bc9 5a3d 3a5a 4e3e
00000250: 2b49 0ebe d3c0 8cbc 72e1 2dbe 4189 773e
00000260: 3681 fcbd 7684 633e 4795 d7bd 2729 81bb
00000270: b826 44bd ffcc 623e b7f4 acbd 15ac 6c3d
00000280: c8a1 29bb b722 293e d6d6 083e f817 4a3e
00000290: 81c7 0dbe 735a 6fbd 0e33 59be cfc7 3cbe
000002a0: dc63 da3d 7c06 7fbd 086a c23d ef51 e4bd
000002b0: d7d3 d33c 383d 55be 35f4 1a3e 6421 bebd
000002c0: 697e 583b caee 02be db5c 84bd 1a75 14be
000002d0: af31 83be f249 e5bc c0f0 6b3e e05f cfbd
000002e0: 387f 47be d0f4 603c d75b 19bd ed25 e0bc
000002f0: d0c8 0ebd d378 9ebd 74fc c03d fa47 62bd
00000300: 7ce5 0f3e 33b6 e9bd 1e87 97bd 40a7 643d
00000310: 916e 50be ec6c 50be 6b3f 17be 2dc6 86bd
00000320: a85b 42be 2e18 b93d 6be4 e83d 5650 14bd
00000330: 8ea2 44be c4c8 cf3d 22be 02be b6d8 943d
00000340: 9207 0a3e 3175 c63d f034 3f3e d51f 663d
00000350: 89cf eabd 9a18 adbc b836 983d ffb2 31be
00000360: a331 8c3d b626 383d ef52 d63d 9f10 f8bd
00000370: 1cf0 223e 35bd 82bd bdcc c03d 22f3 123e
00000380: b3be 02bb 0e43 053e 4b75 093e 6609 6a3e
00000390: 3d2b 60bc f76c 29be cbdc 3f3e 60f4 373d
000003a0: 815e ecbd d4d9 813e c86d 5c3e 07df 013d
000003b0: 9d35 1ebe f998 5abe 7ba5 3fbe 8dc1 7a3c
000003c0: c3ac 19be 18b6 393e e4a1 593d 0477 2e3e
000003d0: 4a99 c3bd b026 393d f405 77bc 75af 69bc
000003e0: 4a7f 393d b127 563e 6a2b d83d 5f98 043e
000003f0: f692 2a3e 02f4 933b 2c37 e4bd cff6 bc3c

convs.1.lin_l.weight f4 [2, 64]
0.03637675 0.06575662 0.14416376 -0.009128652 0.0339948 0.08225417 -0.0072818026 0.10469424
0.14790943 0.15065001 0.0022255415 0.15824078 0.03868753 -0.08404896 -0.0039079404 -0.024305476
0.110386804 0.14168411 -0.01732833 0.10525066 0.044170916 0.0039628386 0.15556602 0.017325845
0.1205276 0.11483892 0.10310414 0.045221247 0.05543355 -0.044794228 -0.05867865 0.071853414
-0.031332362 0.034207787 -0.014331805 0.0089708185 0.009370571 -0.017934864 0.09927635 -0.040711734
0.0655369 0.024163123 0.051400665 0.12129243 0.08280547 0.12491859 -0.04469026 0.07020308
-0.09004422 -0.05162161 -0.02517606 0.057338867 -0.03353636 0.118734956 0.11525169 -0.023349496
0.15423077 0.05443066 0.042600162 0.021687545 0.03184765 0.15109746 -0.04234851 0.072740115
-0.0422458 -0.09340235 -0.08259387 -0.123491436 0.07033575 -0.08108807 0.061775006 0.0033856602
-0.043669607 0.058089126 -0.070680805 -0.047876783 -0.11022461 -0.087599434 -0.069877245 -0.09754357
-0.04336182 -0.15289204 0.039856758 0.009782472 -0.15015867 0.05140229 -0.13778248 0.07387712
-0.061875913 0.01565067 0.05636672 -0.13348766 0.0132565815 0.08767321 -0.13058858 -0.13748297
-0.09016194 0.08430614 -0.021018144 -0.091084406 0.02257856 -0.121067 0.07454308 -0.07584238
-0.034170438 0.011701761 0.033564202 -0.003818247 -0.1108353 -0.12730213 0.06262997 0.077611394
-0.07256308 -0.038593043 -0.05924562 -0.03096687 0.011320157 -0.05478691 -0.12507515 -0.0028144505
0.027092595 0.041150186 -0.07058169 -0.051289976 -0.13729422 -0.11695942 0.04542922 -0.1006899
00000000: c9ff 143d 68ab 863d aa9f 133e 5790 15bc
00000010: 223e 0b3d e074 a83d 309c eebb ef69 d63d
00000020: 9275 173e ff43 1a3e 64da 113b df09 223e
00000030: d176 1e3d dc21 acbd 2e0e 80bb 471c c7bc
00000040: 7a12 e23d a415 113e 24f4 8dbc a88d d73d
00000050: 90ec 343d b3da 813b b34c 1f3e eeee 8d3c
00000060: 2dd7 f63d ab30 eb3d 4328 d33d ea39 393d
00000070: 4a0e 633d 277a 37bd 0659 70bd e227 933d
00000080: 5d56 00bd 771d 0c3d f2cf 6abc 57fa 123c
00000090: 0687 193c 23ec 92bc 6651 cb3d 59c1 26bd
000000a0: 3638 863d bef1 c53c 8189 523d 2a68 f83d
000000b0: ea95 a93d 51d5 ff3d 220d 37bd a2c6 8f3d
000000c0: 1b69 b8bd 2e71 53bd 063e cebc 29dc 6a3d
000000d0: 6c5d 09bd 502b f33d 1409 ec3d 7147 bfbc
000000e0: acee 1d3e aff2 5e3d 827d 2e3d 14aa b13c
000000f0: ae72 023d 4bb9 1a3e a275 2dbd c5f8 943d
00000100: ef09 2dbd bb49 bfbd fa26 a9bd 14e9 fcbd
00000110: 310c 903d 8111 a6bd ca07 7d3d f4e1 5d3b
00000120: e7de 32bd ddee 6d3d 19c1 90bd 721a 44bd
00000130: 71bd e1bd 5567 b3bd cd1b 8fbd ecc4 c7bd
00000140: 2a9c 31bd bb8f 1cbe d740 233d a946 203c
00000150: 32c3 19be 358b 523d da16 0dbe e34c 973d
00000160: 9971 7dbd d535 803c cae0 663d fdb0 08be
00000170: 2232 593c 038e b33d 03b9 05be 56c8 0cbe
00000180: d3a6 b8bd b3a8 ac3d 3e2e acbc 768a babd
00000190: acf6 b83c faf1 f7bd 0baa 983d 4053 9bbd
000001a0: 4df6 0bbd beb8 3f3c 9e7a 093d 8e3b 7abb
000001b0: 9efd e2bd 7d5b 02be 2444 803d b9f2 9e3d
000001c0: f49b 94bd bd13 1ebd 89ab 72bd 3cae fdbc
000001d0: 2e78 393c 3d68 60bd b313 00be a572 38bb
000001e0: 4af1 dd3c 198d 283d 228d 90bd 7015 52bd
000001f0: db96 0cbe 6c88 efbd fd13 3a3d 8236 cebd

convs.1.lin_l.bias f4 [2]
0.10087292 -0.108334266
00000000: 7696 ce3d 5bde ddbd

convs.1.lin_r.weight f4 [2, 64]
0.025813453 0.033732396 -0.057585828 0.09448232 0.040086877 0.14304024 0.1415635 0.11754012
-0.06015499 0.07916762 0.093840525 0.10227812 0.04119639 0.025168527 -0.07647772 -0.023184257
0.08699347 -0.061805453 0.020583851 -0.088334695 0.12757407 0.12635674 -0.054532614 0.14236349
0.15463239 -0.020958671 -0.033723228 -0.011947513 0.13052432 0.006604326 0.033874262 0.030551018
-0.074799344 0.010647724 0.059892427 0.11826934 -0.022820445 0.11050897 -0.03799422 0.12493129
0.1078363 0.11463506 -0.06787781 0.079271264 -0.004528832 -0.007757613 -0.0067595113 0.06308359
0.11715456 -0.06788371 0.083478995 0.090236895 -0.008253814 0.050789416 0.09876268 0.12888272
0.15867344 0.014816489 0.032869097 0.015666407 0.017356483 0.06797536 -0.08876187 0.07478713
-0.12090929 -0.106214866 -0.09977994 -0.0568439 -0.078842804 0.09091728 -0.11144839 0.018505953
0.08574033 -0.04543616 0.06669839 0.056896426 -0.09380928 0.011735382 -0.045214593 -0.031305447
-0.12976623 -0.09353218 -0.13868855 -0.025423553 -0.13740425 -0.09862937 0.021576881 -0.101896346
-0.055502973 -0.106947996 0.079151794 0.020840988 -0.076441765 -0.106233194 -0.11934498 -0.0012582416
0.07788452 -0.122771844 0.05092319 -0.064466864 0.021106912 -0.10360526 -0.030976402 0.022089338
-0.046917316 -0.0072759045 -0.005731853 -0.15573286 0.015456859 -0.093096495 -0.14026955 0.030533386
0.046059567 -0.021360243 -0.12553048 0.052581728 0.061146624 -0.003706535 0.0045900512 -0.0937956
0.07336287 0.04868424 0.03852615 0.050753262 0.038265824 0.053286966 -0.15251349 -0.14039254
00000000: bc76 d33c fb2a 0a3d 1edf 6bbd f27f c13d
00000010: 2332 243d 2479 123e 06f6 103e e0b8 f03d
00000020: 1465 76bd a222 a23d 762f c03d 3177 d13d
00000030: 8cbd 283d 3a2e ce3c 5aa0 9cbd e9ec bdbc
00000040: a229 b23d b727 7dbd 779f a83c d2e8 b4bd
00000050: c7a2 023e a963 013e 975d 5fbd bcc7 113e
00000060: f457 1e3e 85b1 abbc 5e21 0abd 80bf 43bc
00000070: 2ba8 053e 1a69 d83b bdbf 0a3d 2146 fa3c
00000080: 6630 99bd cb73 2e3c c351 753d 3237 f23d
00000090: f1f1 babc 8752 e23d d49f 1bbd fadb ff3d
000000a0: 47d9 dc3d c9c5 ea3d 8503 8bbd f958 a23d
000000b0: 9966 94bb 9333 febb e47e ddbb f831 813d
000000c0: bbee ef3d 9d06 8bbd 09f7 aa3d 1fce b83d
000000d0: 013b 07bc 9008 503d 1744 ca3d d5f9 033e
000000e0: 4a7b 223e dcc0 723c bfa1 063d d656 803c
000000f0: 2f2f 8e3c aa36 8b3d c9c8 b5bd ff29 993d
00000100: 4a9f f7bd 2e87 d9bd 6d59 ccbd 26d5 68bd
00000110: 5678 a1bd d732 ba3d 0e3f e4bd cc99 973c
00000120: a098 af3d 441b 3abd 2a99 883d 3a0c 693d
00000130: 141f c0bd c245 403c f032 39bd 243a 00bd
00000140: 70e1 04be cd8d bfbd 5f04 0ebe 0e45 d0bc
00000150: b3b3 0cbe 32fe c9bd 00c2 b03c 08af d0bd
00000160: 1657 63bd 8d07 dbbd 561a a23d b8ba aa3c
00000170: 808d 9cbd ca90 d9bd 246b f4bd 95eb a4ba
00000180: eb81 9f3d ce6f fbbd d694 503d 3407 84bd
00000190: 67e8 ac3c ff2e d4bd 39c2 fdbc b3f4 b43c
000001a0: 5f2c 40bd b66a eebb 45d2 bbbb 6f78 1fbe
000001b0: c43e 7d3c 60a9 bebd d2a2 0fbe 2721 fa3c
000001c0: f5a8 3c3d adfb aebc 108b 00be f05f 573d
000001d0: e274 7a3d 57e9 72bb 2468 963b e817 c0bd
000001e0: 463f 963d 2069 473d 99cd 1d3d a7e2 4f3d
000001f0: a0bc 1c3d 6f43 5a3d 7f2c 1cbe 10c3 0fbe
